…
ms():,}\")",
        "language": "python",
        "explanation": "This traces the exact shape transformation at every layer of a CNN. For Conv2D with <code>padding='valid'</code> (default): output = input - filter + 1. For MaxPooling2D with pool_size=2: output = input // 2. The number of filters determines the depth (channels) of the output. Understanding shape flow is essential for designing CNNs and debugging shape mismatch errors.",
        "output": "Layer                     Output Shape         Params\n---------------------------------------------------------\nconv2d                    (None, 26, 26, 16)         160\nmax_pooling2d             (None, 13, 13, 16)           0\nconv2d_1                  (None, 11, 11, 32)       4,640\nmax_pooling2d_1           (None, 5, 5, 32)             0\nconv2d_2                  (None, 3, 3, 64)        18,496\nflatten                   (None, 576)                  0\ndense                     (None, 128)             73,856\ndense_1                   (None, 10)               1,290\n\nTotal parameters: 98,442"
      },
      {
        "title": "Comparing Pre-trained Models for Transfer Learning",
        "code": "import tensorflow as tf\nfrom tensorflow.keras.applications import VGG16, ResNet50, MobileNetV2\nimport numpy as np\n\n# Compare three popular pre-trained models\nmodels_info = {\n    'VGG16': VGG16(weights='imagenet', include_top=False, input_shape=(224, 224, 3)),
…
